Model: "functional"
┏━━━━━━━━━━━━━━━━━━━━━┳━━━━━━━━━━━━━━━━━━━┳━━━━━━━━━━━━┳━━━━━━━━━━━━━━━━━━━┓
┃ Layer (type)        ┃ Output Shape      ┃    Param # ┃ Connected to      ┃
┡━━━━━━━━━━━━━━━━━━━━━╇━━━━━━━━━━━━━━━━━━━╇━━━━━━━━━━━━╇━━━━━━━━━━━━━━━━━━━┩
│ input_layer         │ (None, 168, 6)    │          0 │ -                 │
│ (InputLayer)        │                   │            │                   │
├─────────────────────┼───────────────────┼────────────┼───────────────────┤
│ conv1d (Conv1D)     │ (None, 168, 128)  │      1,536 │ input_layer[0][0] │
├─────────────────────┼───────────────────┼────────────┼───────────────────┤
│ activation          │ (None, 168, 128)  │          0 │ conv1d[0][0]      │
│ (Activation)        │                   │            │                   │
├─────────────────────┼───────────────────┼────────────┼───────────────────┤
│ conv1d_2 (Conv1D)   │ (None, 168, 1)    │        128 │ activation[0][0]  │
├─────────────────────┼───────────────────┼────────────┼───────────────────┤
│ add (Add)           │ (None, 168, 6)    │          0 │ input_layer[0][0… │
│                     │                   │            │ conv1d_2[0][0]    │
├─────────────────────┼───────────────────┼────────────┼───────────────────┤
│ conv1d_3 (Conv1D)   │ (None, 168, 128)  │      1,536 │ add[0][0]         │
├─────────────────────┼───────────────────┼────────────┼───────────────────┤
│ activation_1        │ (None, 168, 128)  │          0 │ conv1d_3[0][0]    │
│ (Activation)        │                   │            │                   │
├─────────────────────┼───────────────────┼────────────┼───────────────────┤
│ conv1d_5 (Conv1D)   │ (None, 168, 1)    │        128 │ activation_1[0][… │
├─────────────────────┼───────────────────┼────────────┼───────────────────┤
│ add_1 (Add)         │ (None, 168, 6)    │          0 │ add[0][0],        │
│                     │                   │            │ conv1d_5[0][0]    │
├─────────────────────┼───────────────────┼────────────┼───────────────────┤
│ conv1d_6 (Conv1D)   │ (None, 168, 128)  │      1,536 │ add_1[0][0]       │
├─────────────────────┼───────────────────┼────────────┼───────────────────┤
│ activation_2        │ (None, 168, 128)  │          0 │ conv1d_6[0][0]    │
│ (Activation)        │                   │            │                   │
├─────────────────────┼───────────────────┼────────────┼───────────────────┤
│ conv1d_8 (Conv1D)   │ (None, 168, 1)    │        128 │ activation_2[0][… │
├─────────────────────┼───────────────────┼────────────┼───────────────────┤
│ add_2 (Add)         │ (None, 168, 6)    │          0 │ add_1[0][0],      │
│                     │                   │            │ conv1d_8[0][0]    │
├─────────────────────┼───────────────────┼────────────┼───────────────────┤
│ conv1d_9 (Conv1D)   │ (None, 168, 128)  │      1,536 │ add_2[0][0]       │
├─────────────────────┼───────────────────┼────────────┼───────────────────┤
│ activation_3        │ (None, 168, 128)  │          0 │ conv1d_9[0][0]    │
│ (Activation)        │                   │            │                   │
├─────────────────────┼───────────────────┼────────────┼───────────────────┤
│ conv1d_11 (Conv1D)  │ (None, 168, 1)    │        128 │ activation_3[0][… │
├─────────────────────┼───────────────────┼────────────┼───────────────────┤
│ add_3 (Add)         │ (None, 168, 6)    │          0 │ add_2[0][0],      │
│                     │                   │            │ conv1d_11[0][0]   │
├─────────────────────┼───────────────────┼────────────┼───────────────────┤
│ conv1d_12 (Conv1D)  │ (None, 168, 128)  │      1,536 │ add_3[0][0]       │
├─────────────────────┼───────────────────┼────────────┼───────────────────┤
│ activation_4        │ (None, 168, 128)  │          0 │ conv1d_12[0][0]   │
│ (Activation)        │                   │            │                   │
├─────────────────────┼───────────────────┼────────────┼───────────────────┤
│ conv1d_14 (Conv1D)  │ (None, 168, 1)    │        128 │ activation_4[0][… │
├─────────────────────┼───────────────────┼────────────┼───────────────────┤
│ add_4 (Add)         │ (None, 168, 6)    │          0 │ add_3[0][0],      │
│                     │                   │            │ conv1d_14[0][0]   │
├─────────────────────┼───────────────────┼────────────┼───────────────────┤
│ conv1d_15 (Conv1D)  │ (None, 168, 128)  │      1,536 │ add_4[0][0]       │
├─────────────────────┼───────────────────┼────────────┼───────────────────┤
│ activation_5        │ (None, 168, 128)  │          0 │ conv1d_15[0][0]   │
│ (Activation)        │                   │            │                   │
├─────────────────────┼───────────────────┼────────────┼───────────────────┤
│ conv1d_17 (Conv1D)  │ (None, 168, 1)    │        128 │ activation_5[0][… │
├─────────────────────┼───────────────────┼────────────┼───────────────────┤
│ add_5 (Add)         │ (None, 168, 6)    │          0 │ add_4[0][0],      │
│                     │                   │            │ conv1d_17[0][0]   │
├─────────────────────┼───────────────────┼────────────┼───────────────────┤
│ conv1d_18 (Conv1D)  │ (None, 168, 128)  │      1,536 │ add_5[0][0]       │
├─────────────────────┼───────────────────┼────────────┼───────────────────┤
│ activation_6        │ (None, 168, 128)  │          0 │ conv1d_18[0][0]   │
│ (Activation)        │                   │            │                   │
├─────────────────────┼───────────────────┼────────────┼───────────────────┤
│ conv1d_20 (Conv1D)  │ (None, 168, 1)    │        128 │ activation_6[0][… │
├─────────────────────┼───────────────────┼────────────┼───────────────────┤
│ add_6 (Add)         │ (None, 168, 6)    │          0 │ add_5[0][0],      │
│                     │                   │            │ conv1d_20[0][0]   │
├─────────────────────┼───────────────────┼────────────┼───────────────────┤
│ conv1d_21 (Conv1D)  │ (None, 168, 128)  │      1,536 │ add_6[0][0]       │
├─────────────────────┼───────────────────┼────────────┼───────────────────┤
│ activation_7        │ (None, 168, 128)  │          0 │ conv1d_21[0][0]   │
│ (Activation)        │                   │            │                   │
├─────────────────────┼───────────────────┼────────────┼───────────────────┤
│ conv1d_23 (Conv1D)  │ (None, 168, 1)    │        128 │ activation_7[0][… │
├─────────────────────┼───────────────────┼────────────┼───────────────────┤
│ add_7 (Add)         │ (None, 168, 6)    │          0 │ add_6[0][0],      │
│                     │                   │            │ conv1d_23[0][0]   │
├─────────────────────┼───────────────────┼────────────┼───────────────────┤
│ conv1d_24 (Conv1D)  │ (None, 168, 128)  │      1,536 │ add_7[0][0]       │
├─────────────────────┼───────────────────┼────────────┼───────────────────┤
│ activation_8        │ (None, 168, 128)  │          0 │ conv1d_24[0][0]   │
│ (Activation)        │                   │            │                   │
├─────────────────────┼───────────────────┼────────────┼───────────────────┤
│ conv1d_26 (Conv1D)  │ (None, 168, 1)    │        128 │ activation_8[0][… │
├─────────────────────┼───────────────────┼────────────┼───────────────────┤
│ add_8 (Add)         │ (None, 168, 6)    │          0 │ add_7[0][0],      │
│                     │                   │            │ conv1d_26[0][0]   │
├─────────────────────┼───────────────────┼────────────┼───────────────────┤
│ conv1d_27 (Conv1D)  │ (None, 168, 128)  │      1,536 │ add_8[0][0]       │
├─────────────────────┼───────────────────┼────────────┼───────────────────┤
│ activation_9        │ (None, 168, 128)  │          0 │ conv1d_27[0][0]   │
│ (Activation)        │                   │            │                   │
├─────────────────────┼───────────────────┼────────────┼───────────────────┤
│ conv1d_29 (Conv1D)  │ (None, 168, 1)    │        128 │ activation_9[0][… │
├─────────────────────┼───────────────────┼────────────┼───────────────────┤
│ add_9 (Add)         │ (None, 168, 6)    │          0 │ add_8[0][0],      │
│                     │                   │            │ conv1d_29[0][0]   │
├─────────────────────┼───────────────────┼────────────┼───────────────────┤
│ conv1d_30 (Conv1D)  │ (None, 168, 128)  │      1,536 │ add_9[0][0]       │
├─────────────────────┼───────────────────┼────────────┼───────────────────┤
│ activation_10       │ (None, 168, 128)  │          0 │ conv1d_30[0][0]   │
│ (Activation)        │                   │            │                   │
├─────────────────────┼───────────────────┼────────────┼───────────────────┤
│ conv1d_32 (Conv1D)  │ (None, 168, 1)    │        128 │ activation_10[0]… │
├─────────────────────┼───────────────────┼────────────┼───────────────────┤
│ add_10 (Add)        │ (None, 168, 6)    │          0 │ add_9[0][0],      │
│                     │                   │            │ conv1d_32[0][0]   │
├─────────────────────┼───────────────────┼────────────┼───────────────────┤
│ conv1d_33 (Conv1D)  │ (None, 168, 128)  │      1,536 │ add_10[0][0]      │
├─────────────────────┼───────────────────┼────────────┼───────────────────┤
│ activation_11       │ (None, 168, 128)  │          0 │ conv1d_33[0][0]   │
│ (Activation)        │                   │            │                   │
├─────────────────────┼───────────────────┼────────────┼───────────────────┤
│ conv1d_35 (Conv1D)  │ (None, 168, 1)    │        128 │ activation_11[0]… │
├─────────────────────┼───────────────────┼────────────┼───────────────────┤
│ add_11 (Add)        │ (None, 168, 6)    │          0 │ add_10[0][0],     │
│                     │                   │            │ conv1d_35[0][0]   │
├─────────────────────┼───────────────────┼────────────┼───────────────────┤
│ conv1d_36 (Conv1D)  │ (None, 168, 128)  │      1,536 │ add_11[0][0]      │
├─────────────────────┼───────────────────┼────────────┼───────────────────┤
│ activation_12       │ (None, 168, 128)  │          0 │ conv1d_36[0][0]   │
│ (Activation)        │                   │            │                   │
├─────────────────────┼───────────────────┼────────────┼───────────────────┤
│ conv1d_38 (Conv1D)  │ (None, 168, 1)    │        128 │ activation_12[0]… │
├─────────────────────┼───────────────────┼────────────┼───────────────────┤
│ add_12 (Add)        │ (None, 168, 6)    │          0 │ add_11[0][0],     │
│                     │                   │            │ conv1d_38[0][0]   │
├─────────────────────┼───────────────────┼────────────┼───────────────────┤
│ conv1d_39 (Conv1D)  │ (None, 168, 128)  │      1,536 │ add_12[0][0]      │
├─────────────────────┼───────────────────┼────────────┼───────────────────┤
│ activation_13       │ (None, 168, 128)  │          0 │ conv1d_39[0][0]   │
│ (Activation)        │                   │            │                   │
├─────────────────────┼───────────────────┼────────────┼───────────────────┤
│ conv1d_41 (Conv1D)  │ (None, 168, 1)    │        128 │ activation_13[0]… │
├─────────────────────┼───────────────────┼────────────┼───────────────────┤
│ add_13 (Add)        │ (None, 168, 6)    │          0 │ add_12[0][0],     │
│                     │                   │            │ conv1d_41[0][0]   │
├─────────────────────┼───────────────────┼────────────┼───────────────────┤
│ conv1d_42 (Conv1D)  │ (None, 168, 128)  │      1,536 │ add_13[0][0]      │
├─────────────────────┼───────────────────┼────────────┼───────────────────┤
│ activation_14       │ (None, 168, 128)  │          0 │ conv1d_42[0][0]   │
│ (Activation)        │                   │            │                   │
├─────────────────────┼───────────────────┼────────────┼───────────────────┤
│ conv1d_44 (Conv1D)  │ (None, 168, 1)    │        128 │ activation_14[0]… │
├─────────────────────┼───────────────────┼────────────┼───────────────────┤
│ add_14 (Add)        │ (None, 168, 6)    │          0 │ add_13[0][0],     │
│                     │                   │            │ conv1d_44[0][0]   │
├─────────────────────┼───────────────────┼────────────┼───────────────────┤
│ conv1d_45 (Conv1D)  │ (None, 168, 128)  │      1,536 │ add_14[0][0]      │
├─────────────────────┼───────────────────┼────────────┼───────────────────┤
│ activation_15       │ (None, 168, 128)  │          0 │ conv1d_45[0][0]   │
│ (Activation)        │                   │            │                   │
├─────────────────────┼───────────────────┼────────────┼───────────────────┤
│ conv1d_47 (Conv1D)  │ (None, 168, 1)    │        128 │ activation_15[0]… │
├─────────────────────┼───────────────────┼────────────┼───────────────────┤
│ add_15 (Add)        │ (None, 168, 6)    │          0 │ add_14[0][0],     │
│                     │                   │            │ conv1d_47[0][0]   │
├─────────────────────┼───────────────────┼────────────┼───────────────────┤
│ conv1d_48 (Conv1D)  │ (None, 168, 128)  │      1,536 │ add_15[0][0]      │
├─────────────────────┼───────────────────┼────────────┼───────────────────┤
│ activation_16       │ (None, 168, 128)  │          0 │ conv1d_48[0][0]   │
│ (Activation)        │                   │            │                   │
├─────────────────────┼───────────────────┼────────────┼───────────────────┤
│ conv1d_50 (Conv1D)  │ (None, 168, 1)    │        128 │ activation_16[0]… │
├─────────────────────┼───────────────────┼────────────┼───────────────────┤
│ add_16 (Add)        │ (None, 168, 6)    │          0 │ add_15[0][0],     │
│                     │                   │            │ conv1d_50[0][0]   │
├─────────────────────┼───────────────────┼────────────┼───────────────────┤
│ conv1d_51 (Conv1D)  │ (None, 168, 128)  │      1,536 │ add_16[0][0]      │
├─────────────────────┼───────────────────┼────────────┼───────────────────┤
│ activation_17       │ (None, 168, 128)  │          0 │ conv1d_51[0][0]   │
│ (Activation)        │                   │            │                   │
├─────────────────────┼───────────────────┼────────────┼───────────────────┤
│ conv1d_16 (Conv1D)  │ (None, 168, 1)    │        128 │ activation_5[0][… │
├─────────────────────┼───────────────────┼────────────┼───────────────────┤
│ conv1d_34 (Conv1D)  │ (None, 168, 1)    │        128 │ activation_11[0]… │
├─────────────────────┼───────────────────┼────────────┼───────────────────┤
│ conv1d_52 (Conv1D)  │ (None, 168, 1)    │        128 │ activation_17[0]… │
├─────────────────────┼───────────────────┼────────────┼───────────────────┤
│ conv1d_1 (Conv1D)   │ (None, 168, 1)    │        128 │ activation[0][0]  │
├─────────────────────┼───────────────────┼────────────┼───────────────────┤
│ conv1d_4 (Conv1D)   │ (None, 168, 1)    │        128 │ activation_1[0][… │
├─────────────────────┼───────────────────┼────────────┼───────────────────┤
│ conv1d_7 (Conv1D)   │ (None, 168, 1)    │        128 │ activation_2[0][… │
├─────────────────────┼───────────────────┼────────────┼───────────────────┤
│ conv1d_10 (Conv1D)  │ (None, 168, 1)    │        128 │ activation_3[0][… │
├─────────────────────┼───────────────────┼────────────┼───────────────────┤
│ conv1d_13 (Conv1D)  │ (None, 168, 1)    │        128 │ activation_4[0][… │
├─────────────────────┼───────────────────┼────────────┼───────────────────┤
│ dropout (Dropout)   │ (None, 168, 1)    │          0 │ conv1d_16[0][0]   │
├─────────────────────┼───────────────────┼────────────┼───────────────────┤
│ conv1d_19 (Conv1D)  │ (None, 168, 1)    │        128 │ activation_6[0][… │
├─────────────────────┼───────────────────┼────────────┼───────────────────┤
│ conv1d_22 (Conv1D)  │ (None, 168, 1)    │        128 │ activation_7[0][… │
├─────────────────────┼───────────────────┼────────────┼───────────────────┤
│ conv1d_25 (Conv1D)  │ (None, 168, 1)    │        128 │ activation_8[0][… │
├─────────────────────┼───────────────────┼────────────┼───────────────────┤
│ conv1d_28 (Conv1D)  │ (None, 168, 1)    │        128 │ activation_9[0][… │
├─────────────────────┼───────────────────┼────────────┼───────────────────┤
│ conv1d_31 (Conv1D)  │ (None, 168, 1)    │        128 │ activation_10[0]… │
├─────────────────────┼───────────────────┼────────────┼───────────────────┤
│ dropout_1 (Dropout) │ (None, 168, 1)    │          0 │ conv1d_34[0][0]   │
├─────────────────────┼───────────────────┼────────────┼───────────────────┤
│ conv1d_37 (Conv1D)  │ (None, 168, 1)    │        128 │ activation_12[0]… │
├─────────────────────┼───────────────────┼────────────┼───────────────────┤
│ conv1d_40 (Conv1D)  │ (None, 168, 1)    │        128 │ activation_13[0]… │
├─────────────────────┼───────────────────┼────────────┼───────────────────┤
│ conv1d_43 (Conv1D)  │ (None, 168, 1)    │        128 │ activation_14[0]… │
├─────────────────────┼───────────────────┼────────────┼───────────────────┤
│ conv1d_46 (Conv1D)  │ (None, 168, 1)    │        128 │ activation_15[0]… │
├─────────────────────┼───────────────────┼────────────┼───────────────────┤
│ conv1d_49 (Conv1D)  │ (None, 168, 1)    │        128 │ activation_16[0]… │
├─────────────────────┼───────────────────┼────────────┼───────────────────┤
│ dropout_2 (Dropout) │ (None, 168, 1)    │          0 │ conv1d_52[0][0]   │
├─────────────────────┼───────────────────┼────────────┼───────────────────┤
│ add_18 (Add)        │ (None, 168, 1)    │          0 │ conv1d_1[0][0],   │
│                     │                   │            │ conv1d_4[0][0],   │
│                     │                   │            │ conv1d_7[0][0],   │
│                     │                   │            │ conv1d_10[0][0],  │
│                     │                   │            │ conv1d_13[0][0],  │
│                     │                   │            │ dropout[0][0],    │
…
│                     │                   │            │ dropout_1[0][0],  │
│                     │                   │            │ conv1d_37[0][0],  │
│                     │                   │            │ conv1d_40[0][0],  │
│                     │                   │            │ conv1d_43[0][0],  │
│                     │                   │            │ conv1d_46[0][0],  │
│                     │                   │            │ conv1d_49[0][0],  │
│                     │                   │            │ dropout_2[0][0]   │
├─────────────────────┼───────────────────┼────────────┼───────────────────┤
│ activation_18       │ (None, 168, 1)    │          0 │ add_18[0][0]      │
│ (Activation)        │                   │            │                   │
├─────────────────────┼───────────────────┼────────────┼───────────────────┤
│ conv1d_54 (Conv1D)  │ (None, 168, 1)    │          1 │ activation_18[0]… │
├─────────────────────┼───────────────────┼────────────┼───────────────────┤
│ lstm (LSTM)         │ (None, 32)        │      4,992 │ input_layer[0][0] │
├─────────────────────┼───────────────────┼────────────┼───────────────────┤
│ flatten (Flatten)   │ (None, 168)       │          0 │ conv1d_54[0][0]   │
├─────────────────────┼───────────────────┼────────────┼───────────────────┤
│ dense (Dense)       │ (None, 24)        │        792 │ lstm[0][0]        │
├─────────────────────┼───────────────────┼────────────┼───────────────────┤
│ dense_1 (Dense)     │ (None, 24)        │      4,056 │ flatten[0][0]     │
├─────────────────────┼───────────────────┼────────────┼───────────────────┤
│ multiply (Multiply) │ (None, 24)        │          0 │ dense[0][0],      │
│                     │                   │            │ dense_1[0][0]     │
├─────────────────────┼───────────────────┼────────────┼───────────────────┤
│ activation_19       │ (None, 24)        │          0 │ multiply[0][0]    │
│ (Activation)        │                   │            │                   │
├─────────────────────┼───────────────────┼────────────┼───────────────────┤
│ dropout_3 (Dropout) │ (None, 24)        │          0 │ activation_19[0]… │
├─────────────────────┼───────────────────┼────────────┼───────────────────┤
│ dense_2 (Dense)     │ (None, 24)        │        600 │ dropout_3[0][0]   │
└─────────────────────┴───────────────────┴────────────┴───────────────────┘
 Total params: 42,569 (166.29 KB)
 Trainable params: 42,569 (166.29 KB)
 Non-trainable params: 0 (0.00 B)
None
(168, 6) 24 128 2 3 [1, 2, 4, 8, 16, 32] 32 1 0
